…
    "test2_y = np.asarray(test.iloc[:, 0]).reshape([test_size, 1])\n",
    "\n",
    "train2_y.shape, val2_y.shape, test2_y.shape"
   ]
  },
  {
   "cell_type": "code",
   "execution_count": 21,
   "metadata": {},
   "outputs": [
    {
     "name": "stdout",
     "output_type": "stream",
     "text": [
      "Model: \"sequential\"\n",
      "_________________________________________________________________\n",
      "Layer (type)                 Output Shape              Param #   \n",
      "=================================================================\n",
      "conv2d (Conv2D)              (None, 28, 28, 32)        320       \n",
      "_________________________________________________________________\n",
      "max_pooling2d (MaxPooling2D) (None, 14, 14, 32)        0         \n",
      "_________________________________________________________________\n",
      "conv2d_1 (Conv2D)            (None, 14, 14, 64)        18496     \n",
      "_________________________________________________________________\n",
      "max_pooling2d_1 (MaxPooling2 (None, 7, 7, 64)          0         \n",
      "_________________________________________________________________\n",
      "dropout (Dropout)            (None, 7, 7, 64)          0         \n",
      "_________________________________________________________________\n",
      "flatten (Flatten)            (None, 3136)              0         \n",
      "_________________________________________________________________\n",
      "dense (Dense)                (None, 128)               401536    \n",
      "_________________________________________________________________\n",
      "dense_1 (Dense)              (None, 10)                1290      \n",
      "=================================================================\n",
      "Total params: 421,642\n",
      "Trainable params: 421,642\n",
      "Non-trainable params: 0\n",
      "_________________________________________________________________\n"
     ]
    }
   ],
   "source": [
    "# Model Build\n",
    "model2 = Sequential([\n",
    "    # First convolution and pooling layer\n",
…
